.dart_tool/chrome-device/Default/optimization_guide_prediction_model_downloads/75ec4739-5664-4ba3-84d3-ea75ac516a66/model.tflite (tflite, 410364 bytes, 166 tensors)

context_transformer_0/bottleneck_input/norm/add f4 [32]
0.15963617 0.046721414 -0.1526647 -0.013277251 -0.16201262 -0.033758454 -0.24003214 0.07568585
-0.0828526 0.0029167184 -0.22985077 0.026269581 0.018306758 -0.08808597 0.020435542 0.019208437
-0.14926454 -0.17831475 -0.13788638 0.12909737 -0.124134615 -0.033090636 -0.1260036 0.019715158
-0.048793994 -0.18911448 0.017589683 -0.05527567 -0.01941602 0.06718786 0.068344794 0.06630886
00000000: aa77 233e f45e 3f3d 2354 1cbe d488 59bc
00000010: a3e6 25be 4e46 0abd fcca 75be 2f01 9b3d
00000020: a0ae a9bd 6a26 3f3b 005e 6bbe 4e33 d73c
00000030: 0ef8 953c 6b66 b4bd 7068 a73c 035b 9d3c
00000040: ced8 18be 2498 36be 1632 0dbe 1a32 043e
00000050: 4a3a febd 0c8a 07bd 1607 01be af81 a13c
00000060: 36dc 47bd 3aa7 41be 3d18 903c be68 62bd
00000070: 580e 9fbc ca99 893d 5bf8 8b3d f1cc 873d

context_transformer_1/bottleneck_input/norm/add f4 [32]
0.08477222 0.1053509 0.052441716 0.046751097 -0.03329542 -0.07791498 0.052598678 -0.1564492
0.18163738 0.20053776 -0.0050202897 0.004045831 0.020182807 -0.01743648 0.04756604 -0.038817413
0.12770678 -0.12596947 -0.009660844 -0.20989782 -0.04516682 0.08612798 -0.25885233 -0.0072848946
-0.04423999 -0.15246561 -0.24342477 -0.059154406 0.06948554 0.04086002 0.0053530983 -0.0077721644
00000000: 0f9d ad3d 36c2 d73d 20cd 563d 147e 3f3d
00000010: c760 08bd e491 9fbd b671 573d 3834 20be
00000020: 26ff 393e c559 4d3e 3e81 a4bb e492 843b
00000030: 6a56 a53c f3d6 8ebc 9cd4 423d 02ff 1ebd
00000040: 91c5 023e 24fe 00be 8448 1ebc 74ef 56be
00000050: d800 39bd de63 b03d 4b88 84be 20b6 eebb
00000060: fe34 35bd f21f 1cbe 5844 79be e44b 72bd
00000070: 6f4e 8e3d d65c 273d 0b69 af3b a4ad febb

mention_transformer_0/bottleneck_input/norm/add f4 [32]
-0.19191232 0.11184803 -0.12909651 0.1180585 -0.10119143 0.009005595 -0.051816173 0.26674837
0.031225737 0.13699034 -0.22623372 -0.058110207 -0.003598034 0.014099014 0.16993313 -0.12133192
-0.027080886 -0.032595474 0.14552581 0.02234881 -0.0006446992 -0.2048822 -0.17511317 0.059078075
0.06860868 0.21698174 -0.13360974 0.03085107 -0.12760575 -0.2069262 -0.26388896 -0.36460853
00000000: aa84 44be 9410 e53d e031 04be a8c8 f13d
00000010: 743d cfbd 348c 133c 323d 54bd 3e93 883e
00000020: 1ecd ff3c 3247 0c3e d0a9 67be f804 6ebd
00000030: fecc 6bbb 8dff 663c f302 2e3e df7c f8bd
00000040: bcd8 ddbc d582 05bd b804 153e da14 b73c
00000050: 0801 29ba a4cc 51be de50 33be dafb 713d
00000060: b582 8c3d 7630 5e3e fed0 08be 62bb fc3c
00000070: 15ab 02be 76e4 53be 741c 87be f8ad babe

mention_transformer_1/bottleneck_input/norm/add f4 [32]
-0.31645656 -0.06504569 0.24286857 0.110456094 -0.15954304 0.24771583 -0.24609867 0.3099979
-0.39474583 0.16973995 0.1513694 -0.32667387 -0.30821222 0.21068951 0.045276344 -0.48932102
0.016661376 -0.2918892 -0.23578097 -0.32372063 -0.14344835 0.20566897 0.12687945 -0.3056203
0.127417 -0.3839387 0.11860362 -0.3264913 -0.20114991 -0.22903202 -0.16337916 0.089339525
00000000: 9806 a2be ad36 85bd 8ab2 783e ce36 e23d
00000010: 405f 23be 38a9 7d3e 4a01 7cbe 0bb8 9e3e
00000020: 201c cabe 4fd0 2d3e 9400 1b3e cc41 a7be
00000030: fecd 9dbe febe 573e b073 393d 4988 fabe
00000040: 707d 883c 8072 95be 9170 71be b6be a5be
00000050: 20e4 12be e39a 523e b0ec 013e 447a 9cbe
00000060: 9a79 023e 9d93 c4be 74e6 f23d de29 a7be
00000070: 3efa 4dbe 5f87 6abe de4c 27be a4f7 b63d

context_transformer_0/attention/value/add;context_transformer_0/attention/value/einsum/Einsum;context_transformer_0/attention/value/add/ReadVariableOp/resource f4 [32]
-0.057849206 -0.07717521 -0.079633325 -0.024413968 0.04524197 -0.04367475 0.06690453 -0.00986377
-0.011945267 0.05371467 -0.0454121 0.004298553 -0.06531874 -0.08568229 -0.03627968 -0.09167588
0.06262675 -0.12400982 -0.09934959 -0.007959533 -0.086256444 -0.08727511 0.053381443 0.101493075
0.08760118 -0.066479325 -0.052525558 -0.115471415 -0.0028505167 0.07287167 -0.039049715 0.033042066
00000000: 4af3 6cbd 090e 9ebd cc16 a3bd cdff c7bc
00000010: a54f 393d 4be4 32bd 3e05 893d a69b 21bc
00000020: 15b6 43bc ea03 5c3d 0a02 3abd e0da 8c3b
00000030: d5c5 85bd 327a afbd 009a 14bd 90c0 bbbd
00000040: 7442 803d dcf8 fdbd cc77 cbbd b368 02bc
00000050: 38a7 b0bd 4bbd b2bd 80a6 5a3d 9adb cf3d
00000060: 3f68 b33d 5026 88bd 0a25 57bd 477c ecbd
00000070: bccf 3abb be3d 953d 98f2 1fbd 1e57 073d

context_transformer_0/bottleneck_input/norm/mul f4 [32, 32]
-0.4102774 -0.3709215 0.35885137 -0.7929834 -0.03710482 0.09386533 -0.07812598 0.08313723
-0.2583974 -0.117689885 -0.068068944 1.455464 -0.3175778 -0.31737617 -0.023107361 -0.17098148
-0.49123815 -0.47517842 -0.046695974 -0.25465485 -0.7113642 0.6674224 -0.23563097 -0.06574454
0.18189763 0.1119608 0.8894556 0.045910332 -0.091460146 -0.23105635 -0.32060662 -0.35691205
-0.02316134 0.11228984 -0.32978165 0.06358414 -0.23194438 -0.0821382 0.050193377 0.029615946
-0.025178855 0.062176224 0.17987236 0.032415763 -0.20594124 0.09423831 -0.16985036 -0.031183634
-0.32979676 0.11342936 0.02121072 -0.0095793735 0.113206506 0.44789222 -0.10589995 0.024548594
-0.06310359 0.09216301 0.016101945 0.07162426 0.029952997 0.08495949 -0.17412543 0.042113706
0.103064895 -0.5837128 -0.5665718 0.3064326 -0.12731737 -0.23539574 0.23819874 0.495513
-0.12390665 0.22963174 0.6986774 -0.0005971954 0.24181423 0.22374645 -0.28818017 0.23510762
-0.0556261 0.3048919 0.44060862 0.32545185 0.12951387 0.68333733 0.16736273 0.047357876
0.5013813 0.15685536 -0.370885 0.28994897 0.034596477 -0.0756078 -0.08017392 0.47453037
-0.2571668 0.035213884 -0.03547596 -0.28949744 -0.40255466 0.040324453 0.09737716 -0.09194436
0.053677395 -0.083567254 0.2022138 0.3312879 -0.14062156 0.013593426 0.12295641 -0.11674993
-0.470269 -0.18867214 -0.09213742 -0.044224072 -0.015091667 0.12242837 -0.13430677 -0.2090516
-0.26081643 -0.1084697 0.04455045 0.09723087 -0.060175512 -0.042851385 -0.19899616 0.08689906
-0.062628284 0.55664855 0.38950336 0.10146149 0.25765863 0.4252292 0.042505473 -0.09256617
-0.015292665 0.11563265 0.24164551 -0.0012122416 -0.10019234 -0.054885782 -0.051944744 -0.03749661
0.61395866 0.2010156 0.18130815 -0.17086917 -0.10605488 -0.0761075 0.42818063 -0.16014045
0.050986715 -0.07090421 0.33192396 -0.21860202 -0.16849673 -0.029125784 0.25777417 -0.25551286
-0.17238893 -0.19807675 -0.43518326 0.17676637 0.21440761 -0.14717218 -0.00036907886 0.002103215
0.0011764492 0.1315353 -0.64697134 -0.5276466 0.46270713 -0.23904316 -0.31565848 0.061721947
0.14848007 0.022568475 -0.08372844 0.51437074 -0.020159332 -0.0344377 -0.37252307 -0.04451133
-0.1527205 0.023956317 -0.17952597 0.22156292 -0.1228451 0.011913175 0.074600495 0.2162337
-0.0010556277 0.031813275 0.0112623675 -0.064218566 0.078102924 -0.13083823 0.09010169 -0.18283585
-0.0033481126 0.2853063 -0.034961157 0.2564996 0.026116423 -0.1501889 -0.059194967 -0.3358272
0.024597628 0.3011296 0.18540332 0.09250213 -0.037599057 0.20233375 0.0047290795 -0.105308264
-0.15517718 -0.01936977 0.15248948 -0.18273039 -0.25040224 -0.057020884 0.0075179534 -0.22014031
-0.09477418 -0.35509306 -0.18768784 -0.03656168 -0.13059694 0.15955563 -0.23976006 0.2370614
0.19947967 0.13304229 0.25848764 -0.08743475 0.15725222 -0.14754106 -0.083158694 -0.10962691
-0.19025588 0.015161783 0.222628 0.1427882 0.02818743 0.60938007 -0.017169094 -0.13312246
0.07404898 0.015986262 -0.3308568 0.28898117 0.1395565 -0.22782753 0.07794747 0.13247445
00000000: e10f d2be 6ce9 bdbe 5ebb b73e f600 4bbf
00000010: 39fb 17bd 773c c03d 8400 a0bd da43 aa3d
00000020: aa4c 84be 6507 f1bd bb67 8bbd a54c ba3f
00000030: 8f99 a2be 217f a2be a64b bdbc c515 2fbe
00000040: 9183 fbbe 964a f3be 4744 3fbd 1f62 82be
00000050: f71b 36bf 32dc 2a3f 3f49 71be 13a5 86bd
00000060: 5f43 3a3e b44b e53d 5db3 633f 790c 3c3d
00000070: 754f bbbd 099a 6cbe 8d26 a4be 2dbd b6be
00000080: dabc bdbc 37f8 e53d 24d9 a8be 6738 823d
00000090: d482 6dbe 1338 a8bd 9297 4d3d 249d f23c
000000a0: e343 cebc 7fac 7e3d 7630 383e 64c6 043d
000000b0: 43e2 52be 0400 c13d 41ed 2dbe d274 ffbc
000000c0: 1fdb a8be a74d e83d 1bc2 ad3c cef2 1cbc
000000d0: d0d8 e73d 2152 e53e 13e2 d8bd 221a c93c
000000e0: 743c 81bd f6bf bc3d 3ae8 833c bdaf 923d
000000f0: fd5f f53c 3eff ad3d f04d 32be 6c7f 2c3d
00000100: b013 d33d 346e 15bf d90a 11bf bce4 9c3e
00000110: 7c5f 02be 950b 71be 5fea 733e e1b3 fd3e
00000120: c5c2 fdbd 9524 6b3e 86dc 323f 1b8d 1cba
00000130: 269e 773e ca1d 653e 5a8c 93be 0dc0 703e
00000140: 32d8 63bd cb1a 9c3e 7497 e13e a0a1 a63e
00000150: 499f 043e 32ef 2e3f 2361 2b3e 55fa 413d
00000160: 865a 003f b19e 203e a4e4 bdbe 3174 943e
00000170: 09b5 0d3d 43d8 9abd 3932 a4bd a5f5 f23e
00000180: 5eab 83be 6f3c 103d 3d4f 11bd 0239 94be
00000190: a51b cebe 412b 253d ad6d c73d 534d bcbd
000001a0: d4dc 5b3d 4f25 abbd 2211 4f3e 919e a93e
000001b0: 19ff 0fbe f6b6 5e3c 92d0 fb3d 961a efbd
000001c0: 19c7 f0be 4533 41be 8bb2 bcbd 4d24 35bd
000001d0: 0a43 77bc babb fa3d b787 09be 9f11 56be
000001e0: bb89 85be 5d25 debd 887a 363d fa20 c73d
000001f0: 997a 76bd ef84 2fbd a6c5 4bbe 22f8 b13d
00000200: 4243 80bd 8580 0e3f fc6c c73e 0bcb cf3d
00000210: d5eb 833e a4b7 d93e 381a 2e3d 5593 bdbd
00000220: 168e 7abc d0d0 ec3d ec71 773e 14e4 9eba
00000230: a431 cdbd eacf 60bd 03c4 54bd 0c96 19bd
00000240: 652c 1d3f 09d7 4d3e d8a8 393e 54f8 2ebe
00000250: 4d33 d9bd 40de 9bbd 7e3a db3e dcfb 23be
00000260: 72d7 503d 3a36 91bd f0f1 a93e 35d9 5fbe
00000270: 688a 2cbe 3299 eebc fafa 833e 95d2 82be
00000280: b986 30be a2d4 4abe 57d0 debe 3e02 353e
00000290: ab8d 5b3e 4eb4 16be ed80 c1b9 18d6 093b
000002a0: 1633 9a3a 31b1 063e ea9f 25bf d913 07bf
000002b0: f3e7 ec3e bbc7 74be fd9d a1be 27d0 7c3d
000002c0: 290b 183e 86e1 b83c d179 abbd cdad 033f
000002d0: 2f25 a5bc 8c0e 0dbd 58bb bebe 8351 36bd
000002e0: c362 1cbe 0a40 c43c a8d5 37be 64e1 623e
000002f0: 3696 fbbd 7a2f 433c 25c8 983d 5e6c 5d3e
00000300: fd5c 8aba a34e 023d cb85 383c 0685 83bd
00000310: 6df4 9f3d 75fa 05be 3c87 b83d 5239 3bbe
00000320: 026c 5bbb ab13 923e 6e33 0fbd ea53 833e
00000330: 1cf2 d53c 1ecb 19be 6c76 72bd 8bf1 abbe
00000340: f780 c93c a92d 9a3e 5eda 3d3e c271 bd3d
00000350: 7801 1abd 9430 4f3e 65f6 9a3b dcab d7bd
00000360: c4e6 1ebe 5aad 9ebc 3426 1c3e ad1d 3bbe
00000370: b934 80be bb8e 69bd 2a59 f63b 766c 61be
00000380: f718 c2bd c2ce b5be 3e31 40be b3c1 15bd
00000390: 34bb 05be 8d62 233e a983 75be 39c0 723e
000003a0: 6644 4c3e 3d3c 083e 7e58 843e fd10 b3bd
000003b0: ba06 213e 0115 17be 1b4f aabd 1384 e0bd
000003c0: 70d2 42be 2169 783c 98f8 633e 1237 123e
000003d0: 53e9 e63c 5500 1c3f 33a6 8cbc 4151 08be
000003e0: fea6 973d 9ff5 823c 1066 a9be 57f5 933e
000003f0: e6e7 0e3e 9f4b 69be eca2 9f3d 62a7 073e

context_transformer_0/kq_shared_bottleneck/norm/mul;context_transformer_0/kq_shared_bottleneck/norm/add;context_transformer_0/attention/key/einsum/Einsum;context_transformer_0/attention/key/add;context_transformer_0/attention/value/einsum/Einsum;context_transformer_0/attention/key/add/ReadVariableOp/resource f4 [32]
0.2490018 -0.061158456 -0.033084393 0.24177189 -0.28626466 -0.14067976 0.07993972 0.28929815
0.0444516 -0.029846443 -0.105394565 0.04155542 -0.10894486 -0.06387115 -0.025559312 0.08564094
-0.014826833 -0.23475002 -0.19105564 -0.046051603 0.21651004 -0.37404272 -0.19037499 -0.03727174
-0.12778495 -0.075973354 0.07593382 -0.35522476 -0.08223748 0.45700842 -0.16014716 0.07822221
00000000: 54fa 7e3e 4a81 7abd 8083 07bd 0d93 773e
00000010: 4891 92be 5b0e 10be 70b7 a33d e31e 943e
00000020: e212 363d 8780 f4bc 1bd9 d7bd 0436 2a3d
00000030: 7c1e dfbd e1ce 82bd c361 d1bc 8464 af3d
00000040: 3fec 72bc 4f62 70be 17a4 43be 9ba0 3cbd
00000050: cfb4 5d3e 8782 bfbe a9f1 42be 41aa 18bd
00000060: 0fda 02be eb97 9bbd 3183 9b3d 05e0 b5be
00000070: 206c a8bd 02fd e93e 9efd 23be f732 a03d

context_transformer_0/kq_shared_bottleneck/norm/mul;context_transformer_0/kq_shared_bottleneck/norm/add;context_transformer_0/attention/key/einsum/Einsum;context_transformer_0/attention/key/add;context_transformer_0/attention/value/einsum/Einsum;context_transformer_0/attention/key/add/ReadVariableOp/resource1 f4 [32, 32]
0.19223022 0.054900724 0.37831488 0.17778425 0.00083681534 0.07893105 -0.62935954 -0.39890414
-0.11271551 0.2023635 -0.08683238 -0.1295691 -0.41235438 0.20713067 -0.26074025 -0.14594314
-0.08672763 0.11843613 0.26192054 0.5100673 -0.25618693 -0.24590452 -0.23859228 0.1691659
0.07463963 0.28917125 0.27741164 -0.25268254 -0.056250274 0.027608091 0.31567833 -0.12027021
-0.17229754 0.025338002 -0.31773046 -0.05576894 0.11784708 -0.11604753 0.10387268 -0.054387357
0.26644498 0.0007936012 -0.06888012 0.23687667 0.24341176 -0.112307474 -0.17908114 0.06198079
-0.15596096 -0.33376098 -0.26913682 0.08261334 0.4821434 0.30425793 0.24245661 -0.07785854
-0.005473015 -0.18901344 0.16885518 0.4533338 -0.12360335 0.18030798 0.2595358 0.0643932
-0.06974119 -0.05845654 0.033818685 0.062377077 0.17834745 -0.06553379 -0.5926487 -0.14377086
0.66354614 0.16142185 0.038594034 -0.009427686 -0.029876718 -0.13323776 -0.37051204 -0.31360078
-0.5718393 0.24894425 -0.10079079 0.93549937 -0.00074306224 0.669572 0.02519908 0.12807468
0.13512586 0.14798822 0.044804886 -0.23957789 -0.6528794 0.0697293 0.3000909 0.066904314
0.009618768 0.19864103 -0.014595868 0.29889306 0.48814464 0.015037952 -0.7302792 -0.7365127
-0.5113058 0.63170576 -0.2855673 -0.00574213 -0.03907274 0.2213653 -0.25625825 -0.31358013
0.071211554 -0.27762258 0.06820582 0.17663811 -0.6293988 -0.7917704 -0.077011675 0.054693706
0.1008763 -0.052340668 0.103927135 -0.041469775 -0.053689156 -0.036638282 -0.20934089 -0.044008527
-0.30689228 0.015938535 -0.4442849 -0.020827066 0.28095174 -0.27898765 -0.030392697 0.015958399
-0.118508585 0.117794156 0.17227198 0.11981676 0.35523623 -0.33541226 0.11513649 -0.22589314
0.15383454 0.16097052 -0.36762115 -0.16106513 -0.062177476 -0.05330474 0.12875187 -0.01542672
-0.015199701 -0.1969396 -0.24825485 0.020146204 -0.08878503 -0.13723007 -0.17747943 0.2728035
0.023504013 -0.07650521 0.044215817 -0.020160656 -0.19224413 -0.072532244 -0.10631326 0.37877244
0.61285734 -0.24142957 0.18747357 -0.02938048 -0.052287925 -0.19321488 -0.13689858 -0.014133888
-0.37597176 0.33732176 -0.04617056 0.598177 0.28906447 0.8316675 -0.01950688 0.09420975
-0.027929401 0.15437514 -0.05009529 -0.21435942 -0.40131912 -0.010022048 0.2921904 0.08108927
0.09669615 0.051813744 0.29656923 0.15604666 0.013909314 0.03945932 -0.49656513 -0.031561732
-0.39000288 0.26513904 0.087471314 -0.2928013 -0.34531116 0.054344345 0.08317111 -0.25709385
0.16094117 0.35173923 0.24919553 0.21199399 -0.6207939 -0.42464542 -0.33338508 0.09254172
0.032028195 0.32830912 -0.057475787 -0.53761894 0.0079885265 -0.18760306 -0.069682345 0.05601339
0.28697252 0.000823498 0.42713413 0.057880174 -0.21307214 0.2272298 -0.03291245 -0.053250685
0.024229959 -0.04500149 -0.1770568 -0.13983168 -0.30099222 0.3110452 -0.11161705 0.14841907
-0.19946748 -0.13764267 0.36994705 0.19729586 -0.008343802 -0.030135378 -0.17221232 0.06485601
0.001643978 0.20874968 0.22450061 -0.029349696 0.003926207 0.105994046 0.15507607 -0.25615484
00000000: 00d8 443e 95df 603d 7db2 c13e 130d 363e
00000010: ba5d 5b3a 9aa6 a13d b51d 21bf 2a3d ccbe
00000020: 64d7 e6bd 6138 4f3e 2dd5 b1bd c3ad 04be
00000030: 1d20 d3be 101a 543e bf7f 85be 1e72 15be
00000040: 419e b1bd a48e f23d 731a 863e c593 023f
00000050: ef2a 83be 65ce 7bbe 8951 74be d339 2d3e
00000060: aadc 983d 410e 943e e608 8e3e 9b5f 81be
00000070: b066 66bd 5d2a e23c 97a0 a13e 3a50 f6bd
00000080: c46e 30be a491 cf3c 91ad a2be f96d 64bd
00000090: cf59 f13d 54aa edbd 33bb d43d 47c5 5ebd
000000a0: 7a6b 883e ad09 503a 0511 8dbd cc8f 723e
000000b0: ef40 793e 7601 e6bd 0c61 37be 92df 7d3d
000000c0: 3bb4 1fbe b8e2 aabe 4dcc 89be 2f31 a93d
000000d0: 80db f63e b2c7 9b3e 8c46 783e 4c74 9fbd
000000e0: fa56 b3bb bd8c 41be 5fe8 2c3e 5e1b e83e
000000f0: c123 fdbd a8a2 383e e0e1 843e 95e0 833d
00000100: 78d4 8ebd 2070 6fbd 7685 0a3d 1b7f 7f3d
00000110: b7a0 363e 9436 86bd d3b7 17bf ab38 13be
00000120: 29de 293f c54b 253e c714 1e3d 9576 1abc
00000130: 05c0 f4bc 7b6f 08be c1b3 bdbe 4890 a0be
00000140: 0f64 12bf 3eeb 7e3e 676b cebd e37c 6f3f
00000150: 10ca 42ba 1269 2b3f 4d6e ce3c 0226 033e
00000160: 6f5e 0a3e 398a 173e 5485 373d e853 75be
00000170: 1b23 27bf 3cce 8e3d 84a5 993e 2105 893d
00000180: 0998 1d3c 8e68 4b3e 8223 6fbc 8308 993e
00000190: 18ee f93e be61 763c 94f3 3abf 198c 3cbf
000001a0: f0e4 02bf 78b7 213f e135 92be 7a28 bcbb
000001b0: bd0a 20bd 96ad 623e 4834 83be 938d a0be
000001c0: 5dd7 913d 8c24 8ebe 7eaf 8b3d 9fe0 343e
000001d0: 4820 21bf 77b1 4abf 4cb8 9dbd 8206 603d
000001e0: 3c98 ce3d 2b63 56bd c0d7 d43d 36dc 29bd
000001f0: 29e9 5bbd 0612 16bd 755d 56be 4942 34bd
00000200: fc20 9dbe 8891 823c 4f79 e3be 869d aabc
00000210: e8d8 8f3e 78d7 8ebe 1bfa f8bc 30bb 823c
00000220: a1b4 f2bd 103e f13d 1168 303e 7d62 f53d
00000230: 86e1 b53e 28bb abbe aecc eb3d 8850 67be
00000240: cd86 1d3e 75d5 243e d738 bcbe 42ee 24be
00000250: cfad 7ebd 1256 5abd 88d7 033e 5ac0 7cbc
00000260: 2b08 79bc 89aa 49be 8536 7ebe a709 a53c
00000270: edd4 b5bd 0a86 0cbe 2bbd 35be e6ac 8b3e
00000280: 7d8b c03c c3ae 9cbd a51b 353d f627 a5bc
00000290: a5db 44be c98b 94bd c4ba d9bd 76ee c13e
000002a0: 38e4 1c3f 5039 77be 12f9 3f3e 55af f0bc
000002b0: dd2b 56bd 1fda 45be 242f 0cbe d391 67bc
000002c0: 5f7f c0be 70b5 ac3e 571d 3dbd 2122 193f
000002d0: 4200 943e 29e8 543f e4cc 9fbc 0bf1 c03d
000002e0: 33cc e4bc 8414 1e3e b830 4dbd 0981 5bbe
000002f0: b379 cdbe 8433 24bc fb99 953e 2212 a63d
00000300: a208 c63d a63a 543d ecd7 973e b2ca 1f3e
00000310: e4e3 633c 19a0 213d c93d febe e046 01bd
00000320: 75ae c7be 4ec0 873e 2924 b33d 0dea 95be
00000330: a0cc b0be 2d98 5e3d 9d55 aa3d cea1 83be
00000340: c3cd 243e 2a17 b43e 1d2d 7f3e f414 593e
00000350: 59ec 1ebf 206b d9be 73b1 aabe 8386 bd3d
00000360: ff2f 033d 2218 a83e bb6b 6bbd 65a1 09bf
00000370: 4fe2 023c 041b 40be 9eb5 8ebd 4c6e 653d
00000380: 10ee 923e 04e0 573a 53b1 da3e c313 6d3d
00000390: 952f 5abe eeae 683e 35cf 06bd 641d 5abd
000003a0: e87d c63c 7b53 38bd 614e 35be 0930 0fbe
000003b0: a71b 9abe 5141 9f3e 7b97 e4bd 2bfb 173e
000003c0: 3441 4cbe 33f2 0cbe b369 bd3e ed07 4a3e
000003d0: 71b4 08bc 78de f6bc 6d58 30be 3ad3 843d
000003e0: bf7a d73a 7ac2 553e 7de3 653e c66e f0bc
000003f0: 69a7 803b 6813 d93d 43cc 1e3e ba26 83be

context_transformer_0/kq_shared_bottleneck/norm/mul;context_transformer_0/kq_shared_bottleneck/norm/add;context_transformer_0/attention/query/einsum/Einsum;context_transformer_0/attention/query/add;context_transformer_0/attention/value/einsum/Einsum;context_transformer_0/attention/query/add/ReadVariableOp/resource;context_transformer_0/attention/Mul;context_transformer_0/attention/Mul/y f4 [32]
-0.1049987 -0.112232365 -0.09200703 -0.019752562 0.1726969 -0.030116118 0.09858014 -0.1476666
-0.0071392846 -0.061090622 -0.03349865 -0.0038411908 0.21765828 0.018565038 0.1422588 0.0658016
0.15684193 0.12203929 0.15219139 0.0044519315 -0.10758823 0.23149006 0.07363507 0.022692433
-0.036161654 -0.1241133 0.115561984 0.0947386 -0.12593088 -0.2406305 0.0067396834 0.14894798
00000000: 8f09 d7bd 15da e5bd 2f6e bcbd 20d0 a1bc
00000010: 75d7 303e 14b6 f6bc 62e4 c93d ea35 17be
00000020: a9f0 e9bb 293a 7abd e135 09bd 7dbc 7bbb
00000030: d0e1 5e3e b515 983c 4aac 113e fdc2 863d
00000040: 2c9b 203e bcef f93d 0fd8 1b3e 82e1 913b
00000050: 3857 dcbd bb0b 6d3e fccd 963d 7be5 b93c
00000060: 3e1e 14bd 1d2f febd c3ab ec3d 5006 c23d
00000070: 06f4 00be d767 76be 90d8 dc3b d285 183e

context_transformer_0/kq_shared_bottleneck/norm/mul;context_transformer_0/kq_shared_bottleneck/norm/add;context_transformer_0/attention/query/einsum/Einsum;context_transformer_0/attention/query/add;context_transformer_0/attention/value/einsum/Einsum;context_transformer_0/attention/query/add/ReadVariableOp/resource;context_transformer_0/attention/Mul;context_transformer_0/attention/Mul/y1 f4 [32, 32]
-0.018340535 0.1266445 -0.03779686 0.098145805 -0.10950324 0.011282401 -0.14369561 0.00955745
-0.05994458 0.07700999 -0.031995114 -0.049045205 -0.113201946 -0.000261592 0.10592614 0.014840544
-0.16129221 -0.031027544 -0.013580695 0.053346112 -0.068089 -0.12348141 -0.025308523 -0.01983888
-0.025148867 -0.08525943 -0.112119965 -0.09546745 -0.032639757 -0.17835273 -0.0648185 0.05651998
-0.044840734 -0.13261107 -0.005161945 -0.10682039 0.12410717 -0.03167348 0.053481136 -0.18473761
0.074716665 -0.023403538 -0.025463575 0.049945008 0.054751396 -0.037191793 -0.049636237 -0.08362347
0.13227372 -0.0007531345 -0.026425496 -0.11551491 0.07451152 0.06769701 0.08939846 0.08492298
0.02120298 0.0148747545 0.06478011 0.09847724 0.14363891 0.114447646 0.011138031 0.020745609
-0.04788564 -0.2070997 -0.015806599 -0.09135433 -0.11109391 -0.035361744 -0.23721656 -0.18541797
-0.0049908636 0.119391434 0.015319889 0.011111457 -0.09123747 -0.03130817 -0.07529049 -0.0043379874
-0.068822026 0.041268967 -0.03158874 0.07730141 -0.14266658 -0.06208075 0.10237135 0.02085566
0.060318332 -0.06521741 -0.08575675 -0.21546783 0.04153449 0.023927748 -0.17711538 0.032868605
-0.008660241 0.17250055 -0.10415707 0.16590026 0.19662511 -0.0355373 -0.23760042 -0.15316884
-0.15224035 0.030057872 -0.046402108 0.0021398058 0.021639716 -0.016159795 0.07736232 -0.2640647
-0.08031498 -0.01156364 -0.01924581 0.06269429 -0.04142559 -0.2681051 -0.022543158 0.13771895
-0.0126208775 -0.12623677 -0.082375765 0.072657235 -0.033994302 -0.15643735 -0.00645961 0.017142475
0.051623493 -0.086047255 0.041777436 -0.09483646 0.15870222 0.02932082 -0.057708055 -0.19563611
-0.03673325 0.028144073 -0.039431486 -0.013815901 0.09675553 0.022936085 -0.09984289 -0.12032863
0.062381618 0.012597425 0.034200918 0.020243121 0.0064332164 -0.059131414 0.08793679 0.027419435
0.05775946 0.04774006 0.07764302 0.07020775 0.019701723 0.11289532 0.037885014 -0.0747548
-0.011727443 -0.18558961 0.066777 -0.12719586 -0.21483241 0.01106939 -0.035643 0.01448875
0.030438013 0.07510467 0.013339582 -0.020197222 -0.10064218 0.0057032434 -0.0868764 0.15090579
-0.029386865 0.02899352 0.008496817 0.037073754 -0.082577385 0.110528484 0.074969575 -0.06385944
0.03780972 0.028356705 -0.03702561 -0.205327 0.055452026 0.07073722 -0.12637945 0.002434668
0.061678365 0.1251113 0.025396971 0.11870419 -0.129166 0.05734997 -0.18754146 0.05292206
-0.12536348 0.062027518 -0.042068608 -0.1071151 -0.114923134 0.04519806 0.08151869 0.019505836
-0.13925616 -0.014346739 0.043892987 0.11957978 -0.087087974 -0.16410846 -0.05497039 -0.10474245
-0.00039298425 -0.006128658 -0.08590211 -0.1389935 -0.099768944 -0.1888395 -0.023078324 -0.021091405
-0.03164391 0.08538841 -0.030269882 0.10844215 -0.1437365 -0.017486364 0.018067952 0.15645088
-0.005619966 -0.015476827 0.03625675 0.012755345 -0.08830627 -0.025339272 0.108692676 0.09992804
-0.06801938 -0.0005496457 -0.03856804 -0.004707223 -0.017499657 0.020457422 -0.08470624 -0.019930445
-0.030404503 -0.0647122 -0.08693528 -0.06496785 -0.021730397 -0.116275124 -0.042991962 0.06891287
00000000: e43e 96bc 19af 013e e1d0 1abd ab00 c93d
00000010: 3c43 e0bd d2d9 383c f124 13be da96 1c3c
00000020: 7388 75bd 6ab7 9d3d 4f0d 03bd a0e3 48bd
00000030: 6cd6 e7bd 4926 89b9 ceef d83d c125 733c
00000040: c929 25be 7a2d febc 9081 5ebc 7481 5a3d
00000050: 3f72 8bbd d2e3 fcbd d253 cfbc 2685 a2bc
00000060: ff04 cebc 7f9c aebd 279f e5bd 7084 c3bd
00000070: 44b1 05bd 19a2 36be 90bf 84bd 7f81 673d
00000080: ebaa 37bd 32cb 07be 8825 a9bb a6c4 dabd
00000090: e62b fe3d 0dbc 01bd 090f 5b3d db2b 3dbe
000000a0: 0d05 993d c7b8 bfbc fd98 d0bc 2393 4c3d
000000b0: 0043 603d 6c56 18bd 5e4f 4bbd c842 abbd
000000c0: c372 073e 006e 45ba 487a d8bc 1593 ecbd
000000d0: 7f99 983d bba4 8a3d 8a16 b73d 19ec ad3d
000000e0: dfb1 ad3c 3eb5 733c 6fab 843d 6fae c93d
000000f0: 1416 133e 8763 ea3d 4a7c 363c b2f2 a93c
00000100: bc23 44bd f211 54be d77c 81bc fb17 bbbd
00000110: 3485 e3bd 7ad7 10bd e6e8 72be 35de 3dbe
00000120: 668a a3bb 7f83 f43d 4600 7b3c d40c 363c
00000130: b6da babd ff3c 00bd e731 9abd ad25 8ebb
00000140: 90f2 8cbd a609 293d 3263 01bd 3450 9e3d
00000150: 3017 12be 6248 7ebd 12a8 d13d 7dd9 aa3c
00000160: 5b10 773d b590 85bd 3ca1 afbd 99a3 5cbe
00000170: 1220 2a3d 2004 c43c bc5d 35be 3ba1 063d
00000180: afe3 0dbc fca3 303e 4d50 d5bd c2e1 293e
00000190: 1858 493e 8f8f 11bd 864d 73be 4bd8 1cbe
000001a0: e5e4 1bbe ed3b f63c 2310 3ebd fc3b 0c3b
000001b0: c645 b13c 8c61 84bc 2370 9e3d 7d33 87be
000001c0: 2e7c a4bd 6c75 3dbc 64a9 9dbc dd65 803d
000001d0: e1ad 29bd 1245 89be 6eac b8bc 3206 0d3e
000001e0: ccc7 4ebc 3644 01be a0b4 a8bd 51cd 943d
000001f0: 9c3d 0bbd 1d31 20be 23ab d3bb 606e 8c3c
00000200: 2873 533d 8b39 b0bd d11e 2b3d 9e39 c2bd
00000210: d682 223e 3732 f03c 485f 6cbd d554 48be
00000220: 9b75 16bd 668e e63c e982 21bd 175c 62bc
00000230: c327 c63d 75e4 bb3c 6e7a ccbd db6e f6bd
00000240: de83 7f3d 6e65 4e3c 4316 0c3d e7d4 a53c
00000250: bbcd d23b c833 72bd 3418 b43d b99e e03c
00000260: 2f95 6c3d 158b 433d 4e03 9f3d 15c9 8f3d
00000270: 8265 a13c a935 e73d 512d 1b3d 0b19 99bd
00000280: 7624 40bc 340b 3ebe 61c2 883d a23f 02be
00000290: 07fd 5bbe 635c 353c 65fe 11bd 3962 6d3c
000002a0: 2459 f93c 7ad0 993d 438e 5a3c a574 a5bc
000002b0: 7d1d cebd 46e2 ba3b 41ec b1bd 0c87 1a3e
000002c0: b9bc f0bc d283 ed3c 3c36 0b3c a6da 173d
000002d0: 551e a9bd c25c e23d a689 993d bdc8 82bd
000002e0: 5dde 1a3d 524c e83c 2ba8 17bd 3e41 52be
000002f0: aa21 633d adde 903d 9d69 01be f38e 1f3b
00000300: 74a2 7c3d 2d1d 003e 4f0d d03c 2f1b f33d
00000310: 1844 04be cde7 6a3d de0a 40be cdc4 583d
00000320: 495f 00be 9110 7e3d 2250 2cbd 295f dbbd
00000330: d25c ebbd 9a21 393d 45f3 a63d b4ca 9f3c
00000340: 2b99 0ebe 960e 6bbc 22c9 333d 3ee6 f43d
00000350: 2e5b b2bd 0c0c 28be a228 61bd 3683 d6bd
00000360: 7409 ceb9 e9d2 c8bb 72ed afbd 5054 0ebe
00000370: a953 ccbd 245f 41be c10e bdbc e2c7 acbc
00000380: 0b9d 01bd 1ee0 ae3d 8bf8 f7bc eb16 de3d
00000390: a92f 13be 903f 8fbc 3e03 943c a934 203e
000003a0: b127 b8bb 8492 7dbc f581 143d cbfb 503c
000003b0: ebd9 b4bd 4e94 cfbc 449a de3d 12a7 cc3d
000003c0: bf4d 8bbd 1916 10ba 85f9 1dbd 0c3f 9abb
000003d0: 715b 8fbc 5396 a73c 777a adbd 2c45 a3bc
000003e0: dd12 f9bc d487 84bd 200b b2bd dd0d 85bd
000003f0: f203 b2bc a721 eebd 5718 30bd 3122 8d3d

context_transformer_0/ffn_layer_0/intermediate_dense/einsum/Einsum;context_transformer_0/ffn_layer_0/intermediate_dense/Relu;context_transformer_0/ffn_layer_0/intermediate_dense/add f4 [32]
-0.54050046 -0.26025572 -0.17184098 -0.45207748 -0.3523326 -0.22936782 -0.35119987 -0.03803515
-0.22447573 -0.33791807 -0.5288654 -0.3165605 -0.4254028 -0.2482767 -0.20155923 -0.48468557
-0.32543358 -0.3035799 -0.3027886 -0.15929405 -0.5369595 -0.32256368 -0.5494408 -0.35470456
-0.24864018 -0.4949532 -0.4357342 -0.48261002 -0.5492902 -0.43451878 -0.5649378 -0.4741085
00000000: 3d5e 0abf 3d40 85be 15f7 2fbe b376 e7be
00000010: f064 b4be 66df 6abe 78d0 b3be bfca 1bbd
00000020: f7dc 65be 9903 adbe b963 07bf 3814 a2be
00000030: 65ce d9be 3f3c 7ebe 8b65 4ebe b528 f8be
00000040: 3b9f a6be d36e 9bbe 1b07 9bbe fb1d 23be
00000050: 2e76 09bf 1127 a5be 27a8 0cbf d69b b5be
00000060: 889b 7ebe 816a fdbe 8e18 dfbe a918 f7be
00000070: 489e 0cbf 3f79 debe c39f 10bf 59be f2be

context_transformer_0/attention/norm/mul;context_transformer_0/attention/norm/add;context_transformer_0/ffn_layer_0/intermediate_dense/einsum/Einsum;context_transformer_0/ffn_layer_0/intermediate_dense/Relu;context_transformer_0/ffn_layer_0/intermediate_dense/add f4 [32, 32]
-0.27452236 -0.011758035 0.30274865 0.10499259 0.20394875 -0.08054717 0.22275819 0.10264115
0.15921803 -0.026064852 0.2087761 -0.27560228 0.10358385 0.061341535 0.05300997 -0.18282565
0.16748574 0.24590385 0.2752995 -0.22450866 0.14724584 -0.011216549 0.23230624 -0.1100211
0.08471419 0.28702265 -0.09604297 0.13404578 -0.01646955 -0.052047864 0.030836128 0.022659693
0.0837151 0.13163996 0.13492924 0.3090083 0.30275312 -0.057394527 0.3740206 0.06889839
0.26486194 0.057995033 0.06075329 -0.3522294 0.09919679 0.36531413 -0.18106331 -0.33955455
-0.22139823 0.11614397 0.20609218 -0.26356506 -0.029652366 0.22044884 -0.13775222 -0.08541665
0.08180012 0.2868852 -0.024866372 0.08835217 0.18500456 0.19618188 -0.2700338 -0.09940057
0.05028138 0.018356908 0.1850755 -0.39413878 -0.018794412 0.20699388 0.003600356 0.1181427
-0.08323805 -0.19850622 1.0903691 -0.4504826 -0.14560524 0.1444777 -0.27822927 0.0966453
-0.24374847 -0.08866294 -0.020800028 -0.0935915 -0.006306953 0.12862991 -0.10680664 0.20870805
-0.030969227 -0.138399 -0.33183053 -0.3000314 0.24257894 -0.044307027 -0.33315557 -0.2253025
0.021042224 -0.0821611 0.21286526 0.24396986 0.0688743 -0.0538396 0.1723567 -0.11510336
-0.044095393 0.15669934 0.36252666 0.18788685 0.03642203 0.05654323 -0.07006611 0.025723163
0.06934869 0.31515333 0.12273645 0.026268605 0.055353787 -0.22104082 0.08429119 -0.41004282
-0.011876798 0.18858099 0.055986233 0.48207754 0.18165249 0.00648865 -0.23610887 -0.14014506
-0.09311215 -0.047206894 -0.25807866 -0.13969189 0.19320202 0.12314603 0.1719127 -0.08969922
-0.055154793 0.11742663 0.39608452 0.028915968 -0.06549263 -0.000992832 -0.04171664 0.3865262
-0.24506338 0.1638255 0.23358276 0.02794297 0.03798366 0.10788922 -0.0712946 0.4535447
0.06151112 0.049968746 0.06578332 -0.01923925 -0.14769265 -0.05795727 0.24630807 0.14394526
-0.062275443 -0.030297406 0.44107026 -0.14277557 -0.12742522 0.38630694 0.023367226 0.054059014
0.30565768 -0.6021857 0.16551995 -0.17508212 -0.031482067 -0.01319596 0.1427871 -0.33798283
0.3001157 -0.0254324 -0.0037243573 -0.07079534 -0.14521064 -0.20517977 0.2784395 -0.2372263
-0.14803518 0.04190462 -0.1118379 -0.02199375 -0.040404383 0.024688002 -0.07325113 0.024491847
-0.44151777 -0.08680942 0.35708046 -0.26960397 0.032836296 0.6398376 0.2664767 0.110279776
0.067706235 -0.43601584 0.52358335 0.02635394 -0.23284136 0.20995435 0.29769516 -0.14428237
0.008027418 0.21296947 0.20827305 -0.17064491 -0.20449947 0.03792734 0.17321956 -0.094928235
0.33552897 0.11759179 -0.15317199 -0.12074317 -0.14536043 0.0069449376 -0.073378555 0.1797827
0.2569648 -0.21166779 -0.11419853 -0.14924608 0.26980925 -0.12251282 0.22553292 -0.20257427
-0.2901142 -0.1281384 -0.003521279 -0.060486544 -0.523785 0.28137076 -0.2258312 0.14106639
-0.057343524 0.07272561 0.19134142 -0.15262535 -0.00017210124 0.101776406 0.28237152 0.18557921
-0.22996765 0.4165631 -0.010293786 -0.12934093 -0.13859607 -0.18791892 0.24965215 -0.31822285
00000000: 328e 8cbe c6a4 40bc df01 9b3e 5b06 d73d
00000010: f1d7 503e eaf5 a4bd b91a 643e 8635 d23d
00000020: 0d0a 233e f585 d5bc 67c9 553e be1b 8dbe
00000030: c523 d43d 4341 7b3d fb20 593d a636 3bbe
00000040: 6281 2b3e 38ce 7b3e 0ef4 8c3e 99e5 65be
00000050: 9dc7 163e 9ec5 37bc b0e1 6d3e be52 e1bd
00000060: a27e ad3d a2f4 923e 2db2 c4bd 4c43 093e
00000070: 26eb 86bc 2430 55bd 0c9c fc3c d2a0 b93c
00000080: d372 ab3d a0cc 063e e42a 0a3e 5636 9e3e
00000090: 7502 9b3e 8616 6bbd a17f bf3e 991a 8d3d
000000a0: fc9b 873e 338c 6d3d 71d8 783d 6957 b4be
000000b0: b027 cb3d 740a bb3e a968 39be 18da adbe
000000c0: 38b6 62be e4dc ed3d d409 533e 00f2 86be
000000d0: 85e9 f2bc 57bd 613e eb0e 0dbe edee aebd
000000e0: d286 a73d 9ee2 923e 90b4 cbbc fcf1 b43d
000000f0: d671 3d3e e7e3 483e df41 8abe 8792 cbbd
00000100: d9f3 4d3d 3a61 963c 6f84 3d3e 8fcc c9be
00000110: bdf6 99bc 34f6 533e f3f3 6b3b cdf4 f13d
00000120: b678 aabd 3745 4bbe 3791 8b3f a8a5 e6be
00000130: 8a19 15be f6f1 133e 1174 8ebe f9ed c53d
00000140: 3399 79be ea94 b5bd d264 aabc e6ac bfbd
00000150: 8eaa cebb 8fb7 033e 71bd dabd 90b7 553e
00000160: 2db3 fdbc 78b8 0dbe b1e5 a9be b79d 99be
00000170: 9d66 783e 497b 35bd 5e93 aabe b3b5 66be
00000180: be60 ac3c 1444 a8bd 5af9 593e 3cd3 793e
00000190: f80d 8d3d ea86 5cbd 467e 303e 4fbb ebbd
000001a0: 5f9d 34bd cb75 203e 189d b93e 6965 403e
000001b0: 442f 153d e099 673d d27e 8fbd 62b9 d23c
000001c0: b006 8e3d c75b a13e 3f5d fb3d 4231 d73c
000001d0: a7ba 623d 8658 62be dca0 ac3d 22f1 d1be
000001e0: e796 42bc 601b 413e d251 653d ded2 f63e
000001f0: 1c03 3a3e be9e d43b 86c6 71be 3082 0fbe
00000200: 95b1 bebd 045c 41bd e322 84be 640b 0fbe
00000210: c0d6 453e fc33 fc3d e209 303e 3ab4 b7bd
00000220: fee9 61bd 5f7d f03d 97cb ca3e 2ee1 ec3c
00000230: 0021 86bd ea21 82ba 11df 2abd c3e6 c53e
00000240: e5f1 7abe dfc1 273e 5230 6f3e a8e8 e43c
00000250: c194 1b3d 06f5 dc3d e702 92bd 0337 e83e
00000260: 16f3 7b3d 07ac 4c3d 68b9 863d a29b 9dbc
00000270: be3c 17be 9a64 6dbd 2f38 7c3e 6366 133e
00000280: 8914 7fbd 4432 f8bc f6d3 e13e c233 12be
00000290: c27b 02be 06ca c53e a06c bf3c fc6c 5d3d
000002a0: 2a7f 9c3e d828 1abf 107e 293e ba48 33be
000002b0: 57f3 00bd de33 58bc c836 123e 160c adbe
000002c0: c4a8 993e 9c57 d0bc 5914 74bb 26fd 90bd
000002d0: 19b2 14be a51a 52be 9f8f 8e3e 74eb 72be
000002e0: 8996 17be 2ea4 2b3d 450b e5bd 3d2c b4bc
000002f0: 117f 25bd 7e3e ca3c b004 96bd 20a3 c83c
00000300: 9e0e e2be 23c9 b1bd 40d3 b63e 8809 8abe
00000310: 5a7f 063d 66cc 233f a26f 883e 5dda e13d
00000320: 91a9 8a3d 783d dfbe 8f09 063f 38e4 d73c
00000330: f76d 6ebe 46fe 563e 806b 983e c2be 13be
00000340: 6e85 033c ab14 5a3e 8845 553e 8abd 2ebe
00000350: 4f68 51be b359 1b3d 7860 313e bc69 c2bd
00000360: 74ca ab3e f7d3 f03d 1ed9 1cbe 3248 f7bd
00000370: 5dd9 14be 5c92 e33b 7f47 96bd f518 383e
00000380: e490 833e 71bf 58be ebe0 e9bd f7d3 18be
00000390: 7024 8a3e 00e8 fabd 1af2 663e a16f 4fbe
000003a0: d989 94be b636 03be 42c5 66bb bdc0 77bd
000003b0: c616 06bf d40f 903e 4b40 67be b573 103e
000003c0: 0be1 6abd 2af1 943d 01ef 433e d249 1cbe
000003d0: 1376 34b9 2670 d03d 0093 903e 7a08 3e3e
000003e0: a47c 6bbe c247 d53e 45a7 28bc f371 04be
000003f0: 21ec 0dbe d16d 40be d0a4 7f3e 1bee a2be

context_transformer_0/ffn_layer_1/intermediate_dense/einsum/Einsum;context_transformer_0/ffn_layer_1/intermediate_dense/Relu;context_transformer_0/ffn_layer_1/intermediate_dense/add f4 [32]
-0.19487156 -0.15863943 -0.087872446 -0.097114496 0.03367395 -0.17018929 -0.027052592 -0.19433346
-0.1219319 -0.30434734 -0.27107388 -0.16056135 -0.289532 -0.1746741 -0.3268072 -0.15646623
0.17162852 -0.033428542 -0.043223955 -0.36507 0.15589666 -0.1415073 -0.122540146 -0.23693144
-0.3199555 -0.20241848 -0.2928114 -0.15230954 -0.31816268 -0.25833923 0.041039985 0.07388837
00000000: 698c 47be 6072 22be 78f6 b3bd f7e3 c6bd
00000010: b2ed 093d 1a46 2ebe 669d ddbc 5aff 46be
00000020: 6fb7 f9bd 6ad3 9bbe 32ca 8abe 326a 24be
00000030: 8a3d 94be c4dd 32be 4653 a7be af38 20be
00000040: 63bf 2f3e 5eec 08bd 9a0b 31bd 74ea babe
00000050: 60a3 1f3e 4ae7 10be 54f6 fabd 289e 72be
00000060: 35d1 a3be ca46 4fbe 60eb 95be 08f7 1bbe
00000070: 38e6 a2be 0a45 84be 8b19 283d c952 973d

context_transformer_0/ffn_layer_0/norm/mul;context_transformer_0/ffn_layer_0/norm/add;context_transformer_0/ffn_layer_1/intermediate_dense/einsum/Einsum;context_transformer_0/ffn_layer_1/intermediate_dense/Relu;context_transformer_0/ffn_layer_1/intermediate_dense/add f4 [32, 32]
-0.24601473 -0.1254808 -0.11869535 0.0065125152 0.1662031 -0.035158735 0.25927374 -0.16010606
-0.049410813 0.18825124 0.029287962 0.27003294 0.22758244 -0.15348035 0.009868632 0.22589217
0.046911746 0.38271937 -0.09222103 -0.17134477 0.10157732 0.21141018 0.08550962 0.031448722
-0.09352902 0.068028644 0.04407593 0.032704372 -0.15296961 -0.2587207 0.25777823 -0.08698929
-0.12650493 -0.050908744 -0.05932196 0.0024183064 0.045226492 0.061942983 0.15738939 -0.10825543
0.009140905 0.05570624 0.0904875 0.06925644 0.07248927 0.0210159 0.0013884284 0.098461196
0.052033715 0.2170018 0.15244739 -0.048593715 -0.0124489395 0.1223097 0.043304812 0.0015209276
0.011690495 0.07384727 0.049626682 0.019241024 0.062546976 -0.1344375 0.11708505 0.037459232
0.068765946 -0.25156716 -0.0672222 0.14340787 0.2935821 0.020882575 0.55573446 -0.02360224
0.1942765 0.12742442 0.09590572 -0.29649314 -0.022988476 0.13943414 -0.12848045 -0.223643
-0.037645426 0.1739358 0.059641093 -0.25123632 0.076767005 0.13621816 -0.16576882 -0.112147555
-0.020230183 0.3164926 -0.24479906 0.20911182 0.054496247 -0.33542836 -0.28919265 -0.2715786
-0.44451937 -0.13687901 0.34067357 -0.28942963 -0.053639065 0.17131017 0.062395953 -0.16679478
0.026076319 -0.11390689 0.15623182 0.20750372 0.08245343 0.0992126 0.34722555 0.009261035
0.03134469 0.14669515 0.20185478 -0.04905827 0.12196063 -0.07451331 0.21903223 -0.035154533
0.26624846 -0.001264159 0.12980126 -0.2500838 -0.0999791 -0.13262694 0.20745906 -0.03983522
0.06159037 -0.097173445 0.0029223827 0.16141948 0.17868766 0.037653334 0.56323725 0.11871407
0.045511983 0.048545334 0.08297535 -0.23887943 -0.31614172 0.2902503 -0.19458254 -0.2672391
0.030616473 0.20870869 0.20297012 -0.19749607 0.021424128 0.21609354 -0.08500929 0.044741735
-0.04337864 0.35286766 -0.21656556 0.13917959 0.10393481 -0.19101028 -0.13248982 -0.13757913
-0.11358952 -0.005956639 0.2605002 0.1125039 0.20902148 0.020207824 0.4426278 0.12053281
-0.05699854 0.2089811 0.09588603 -0.17979702 -0.23501834 0.035029624 0.02433219 -0.115938164
0.0058379644 0.3127689 0.20736521 -0.27386242 0.14918432 0.07925845 0.021426065 -0.12854105
0.072775386 0.21652016 -0.13638766 0.25132367 0.09709998 -0.14147964 -0.026246179 -0.08499888
-0.3142024 0.20991413 -0.043696165 -0.42521176 0.029155437 -0.04065426 0.064464144 0.52745324
0.048713595 0.40280244 -0.02004601 0.0037630345 -0.13652019 0.4071569 -0.19562764 0.5026226
-0.15150209 0.45117304 0.30107006 0.036290474 -0.15329486 -0.21735318 0.11134176 0.1634347
0.15233989 0.012515986 -0.32136545 -0.12036825 0.16184255 0.12618284 -0.1727813 0.15321675
-0.09837056 0.010244613 0.008441138 0.005052387 0.0019755736 -0.03385308 0.06098329 0.0135949785
0.008532674 0.03233184 0.060500555 0.0014058632 0.061162636 0.018130891 -0.034419797 0.003977689
-0.00537635 0.019415537 -0.03372316 -0.050989024 0.025832709 0.01971621 -0.024839677 0.011801828
-0.007193358 0.02121212 -0.053198162 0.021859454 -0.007328795 -0.01691678 0.045793626 0.01800801
00000000: 49eb 7bbe 0a7e 00be 8c16 f3bd f066 d53b
00000010: 2531 2a3e 9b02 10bd 87bf 843e d8f2 23be
00000020: fe62 4abd efc4 403e 4fed ef3c c241 8a3e
00000030: 5f0b 693e f429 1dbe 0bb0 213c 4750 673e
00000040: 8826 403d cbf3 c33e 61de bcbd 0175 2fbe
00000050: c507 d03d e97b 583e ab1f af3d 60d0 003d
00000060: 258c bfbd 9a52 8b3d f688 343d 05f5 053d
00000070: 11a4 1cbe 0a77 84be 82fb 833e 7127 b2bd
00000080: 828a 01be b085 50bd 95fb 72bd 737c 1e3b
00000090: 6a3f 393d edb7 7d3d af2a 213e 06b5 ddbd
000000a0: bcc3 153c 3a2c 643d 8351 b93d 52d6 8d3d
000000b0: 4175 943d 8929 ac3c edfb b53a 06a6 c93d
000000c0: 4e21 553d b835 5e3e 2b1b 1c3e 340a 47bd
000000d0: a3f6 4bbc 827d fa3d 6360 313d dd59 c73a
000000e0: 7d89 3f3c 3d3d 973d 5945 4b3d 5a9f 9d3c
000000f0: a118 803d fca9 09be 49ca ef3d da6e 193d
00000100: 29d5 8c3d 69cd 80be cbab 89bd 83d9 123e
00000110: 6550 963e ef11 ab3c 9d44 0e3f 7c59 c1bc
00000120: 6bf0 463e 8c7b 023e 386a c43d f3cd 97be
00000130: 5452 bcbc d3c7 0e3e 6190 03be ac02 65be
00000140: 1732 1abd 3a1c 323e 384a 743d 0ca2 80be
00000150: 0538 9d3d c67c 0b3e 4dbf 29be 9ead e5bd
00000160: c5b9 a5bc 510b a23e 9bac 7abe 6921 563e
00000170: 7537 5f3d 44bd abbe 0f11 94be 5a0c 8bbe
00000180: 0b98 e3be 032a 0cbe c46c ae3e 1f30 94be
00000190: a3b4 5bbd ef6b 2f3e e692 7f3d 40cc 2abe
000001a0: 019e d53c 0448 e9bd 3cfb 1f3e db7b 543e
000001b0: 58dd a83d fa2f cb3d 8cc7 b13e 99bb 173c
000001c0: 4a63 003d 4137 163e 05b3 4e3e 53f1 48bd
000001d0: 7fc6 f93d 6f9a 98bd fc49 603e 33fe 0fbd
000001e0: b851 883e 23b2 a5ba 9fea 043e fc0a 80be
000001f0: d8c1 ccbd 5bcf 07be 2670 543e 412a 23bd
00000200: 2f46 7c3d df02 c7bd 7285 3f3b 264b 253e
00000210: e6f9 363e 623a 1a3d 5130 103f 5d20 f33d
00000220: c66a 3a3d 79d7 463d fbee a93d cf9c 74be
00000230: 54dd a1be b09b 943e a540 47be 90d3 88be
00000240: 66cf fa3c bbb7 553e 66d7 4f3e 693c 4abe
00000250: a781 af3c a047 5d3e 5a19 aebd 1c43 373d
00000260: cdad 31bd 12ab b43e 5dc3 5dbe 1885 0e3e
00000270: c6db d43d 3398 43be 69ab 07be 8be1 0cbe
00000280: 9fa1 e8bd e92f c3bb 4860 853e 7268 e63d
00000290: ba09 563e e18a a53c 1ca0 e23e e8d9 f63d
000002a0: 4d77 69bd 24ff 553e e55f c43d b61c 38be
000002b0: a6a8 70be 397b 0f3d 4d54 c73c fd70 edbd
000002c0: 654c bf3b 3f23 a03e 8c57 543e b237 8cbe
000002d0: c6c3 183e 4152 a23d b785 af3c 44a0 03be
000002e0: 430b 953d 76b7 5d3e 35a9 0bbe 7fad 803e
000002f0: 5bdc c63d 0ae0 10be 3a02 d7bc e513 aebd
00000300: 23df a0be bbf3 563e c0fa 32bd 5bb5 d9be
00000310: 62d7 ee3c 1585 26bd c705 843d 2d07 073f
00000320: e887 473d 1f3c ce3e 8837 a4bc 3e9d 763b
00000330: f3cb 0bbe df76 d03e 9d52 48be e0ab 003f
00000340: 5d23 1bbe 2700 e73e db25 9a3e 52a5 143d
00000350: 54f9 1cbe d591 5ebe 2607 e43d 6d5b 273e
00000360: fdfe 1b3e da0f 4d3c 038a a4be a183 f6bd
00000370: 0eba 253e 1336 013e 95ed 30be dae4 1c3e
00000380: 8176 c9bd 05d9 273c b34c 0a3c 7e8e a53b
00000390: a078 013b 87a9 0abd 9dc9 793d 79bd 5e3c
000003a0: a1cc 0b3c 646e 043d 6ecf 773d f144 b83a
000003b0: ac85 7a3d 3c87 943c c6fb 0cbd 4657 823b
000003c0: 182c b0bb 550d 9f3c 4c21 0abd ded9 50bd
000003d0: 1e9f d33c e483 a13c 947c cbbc 745c 413c
000003e0: 43b6 ebbb 0ac5 ad3c 51e6 59bd 9912 b33c
000003f0: 6326 f0bb 0f95 8abc 1992 3b3d 8985 933c

context_transformer_0/ffn_layer_2/intermediate_dense/einsum/Einsum;context_transformer_0/ffn_layer_2/intermediate_dense/Relu;context_transformer_0/ffn_layer_2/intermediate_dense/add f4 [32]
-0.2892063 -0.008215631 -0.06239587 -0.17921518 -0.38633236 -0.3722611 -0.23992911 -0.08228143
-0.26456836 0.0959495 -0.39072812 -0.20100999 -0.3058122 -0.1393261 -0.32177824 -0.07882137
-0.002397019 -0.27676606 -0.30362076 -0.5050834 -0.15625228 -0.26964882 -0.018363094 0.072453886
-0.06630313 -0.054422624 -0.11267123 -0.34296483 -0.044299573 -0.20514138 -0.29102266 -0.07128298
00000000: d912 94be db9a 06bc d092 7fbd 2f84 37be
00000010: 5bcd c5be 0299 bebe faaf 75be 2b83 a8bd
00000020: 8175 87be 2c81 c43d 840d c8be 90d5 4dbe
00000030: 6b93 9cbe 80ab 0ebe 1ec0 a4be 196d a1bd
00000040: 4e17 1dbb 48b4 8dbe 2e74 9bbe 254d 01bf
00000050: 9900 20be 690f 8abe 336e 96bc b462 943d
00000060: efc9 87bd 42ea 5ebd 2dc0 e6bd 1699 afbe
00000070: 7873 35bd 9510 52be ec00 95be d0fc 91bd

context_transformer_0/ffn_layer_1/norm/mul;context_transformer_0/ffn_layer_1/norm/add;context_transformer_0/ffn_layer_2/intermediate_dense/einsum/Einsum;context_transformer_0/ffn_layer_2/intermediate_dense/Relu;context_transformer_0/ffn_layer_2/intermediate_dense/add f4 [32, 32]
0.07668032 -0.1796621 -0.116975576 0.14421023 0.2105765 0.16683593 0.1973262 -0.15174998
0.40629902 -0.015755402 0.12103323 0.32717702 -0.3425518 -0.037200063 -0.24709035 -0.014680511
-0.0594128 0.0444199 0.060156856 0.12865807 0.0053105797 0.08632545 -0.1411009 -0.21434538
-0.045578096 0.25540283 0.22668935 0.0067481846 0.15543598 -0.11941665 -0.36906007 -0.1597704
-0.0662278 0.10472904 -0.2249536 0.03567736 -0.1747403 -0.2596961 0.019993266 0.028011523
0.004567973 -0.15480243 0.30738783 -0.042487416 -0.093411334 0.07345058 -0.11845341 0.042436343
0.02032691 0.0891881 0.30815405 -0.037781022 0.088446096 -0.1874267 0.41806144 0.11233906
0.0986643 0.03407827 -0.08906437 0.27398723 0.44046116 0.21218744 -0.14929906 0.003972171
-0.10937974 0.06203147 0.14516312 0.08919928 0.09078565 0.1388346 0.068200566 -0.20875908
0.13478051 -0.11343566 0.08099376 0.08774532 -0.086516164 0.15679222 -0.09756354 -0.10448296
-0.12503658 -0.049645003 -0.06999507 0.02307382 -0.06256178 -0.14869502 -0.1221973 -0.087474145
0.107956566 0.13210653 -0.038732562 -0.09334498 0.12612939 0.057789486 -0.025858104 0.0022020726
-0.050373033 0.3070086 0.33556387 0.18580861 -0.045542363 -0.014855487 0.014752384 0.4425132
-0.30557883 0.13188453 0.018266853 0.028883561 -0.1868492 -0.022285981 0.053623825 -0.021813795
0.1174682 0.029277442 -0.013417854 0.022951955 -0.024652159 0.2458397 0.09762066 -0.27174687
0.03712472 0.06343331 -0.054057244 0.08317962 -0.14341033 0.061653208 -0.07557122 -0.0026584803
-0.10197456 0.07855326 -0.07314761 -0.037807837 0.046034496 0.026037209 0.10834374 0.27280906
0.42600778 0.18975931 0.044379316 -0.067591965 0.014360313 0.29047778 -0.14324488 0.09945983
0.20696862 0.055650033 0.1976405 0.239119 -0.30138886 -0.082814336 0.021433484 0.17300397
-0.14718704 -0.021299658 -0.45774955 0.016585784 0.14188184 0.07857823 0.102756046 0.05441437
0.029130984 0.10426397 0.06520879 0.12185946 0.040365275 -0.14495444 0.054055557 -0.050724857
-0.19681141 0.07562832 -0.0023800016 0.0658851 -0.15752211 0.08966944 -0.018556193 -0.0015845887
-0.02154744 0.2057331 0.031773772 0.10042132 -0.022885542 0.2489702 -0.02991727 -0.010002808
0.1637247 0.20818187 0.19157368 -0.18187746 -0.09943856 0.123871654 0.147067 -0.13087088
0.027852526 0.28310093 -0.039933678 0.32471645 0.0030900508 -0.026291348 0.008014052 -0.03251733
-0.10676872 0.23567955 0.14916939 0.04031758 0.15349501 -0.04853309 -0.20805533 0.15160437
-0.23386198 -0.096414864 -0.10762284 0.093155704 -0.0021859007 0.014338029 -0.21311516 -0.0060866303
0.071608745 0.12967862 0.0756495 -0.028348671 0.111910686 0.17766999 -0.101514935 0.065640464
-0.029063618 0.01905395 0.16081218 0.10052664 0.012441772 -0.12452404 0.15848814 0.04288405
-0.14821208 -0.056455046 0.25620863 -0.21101516 0.0562354 -0.0734761 -0.060808577 0.24064593
-0.03484644 0.11376808 0.16295983 0.07098693 0.01251559 -0.06383967 0.12716953 -0.12323828
-0.07876937 0.024620546 0.021042673 -0.10380229 0.012744881 0.12604485 0.085791275 0.072394066
00000000: 920a 9d3d 57f9 37be e490 efbd d9ab 133e
00000010: 5ea1 573e 0ad7 2a3e e10f 4a3e 5964 1bbe
00000020: 6d06 d03e 7911 81bc 45e0 f73d bf83 a73e
00000030: f362 afbe 185f 18bd 4105 7dbe 8786 70bc
00000040: d65a 73bd a4f1 353d 0967 763d f1be 033e
00000050: 5f04 ae3b 66cb b03d c17c 10be 5b7d 5bbe
00000060: 19b0 3abd 29c4 823e 4121 683e e01f dd3b
00000070: 9c2a 1f3e b790 f4bd 71f5 bcbe da9a 23be
00000080: 71a2 87bd 2e7c d63d 3d5a 66be 6c22 123d
00000090: 1fef 32be e3f6 84be ebc8 a33c 6c78 e53c
000000a0: efae 953b 8784 1ebe f061 9d3e 4907 2ebd
000000b0: 714e bfbd 426d 963d b497 f2bd bbd1 2d3d
000000c0: 9f84 a63c 40a8 b63d 5ec6 9d3e 46c0 1abd
000000d0: 3a23 b53d c9ec 3fbe 260c d63e 0512 e63d
000000e0: 8210 ca3d a895 0b3d 6167 b6bd 0e48 8c3e
000000f0: 2084 e13e aa47 593e dae1 18be fc28 823b
00000100: 7c02 e0bd b614 7e3d a4a5 143e 1dae b63d
00000110: d4ed b93d a82a 0e3e bdac 8b3d f1c4 55be
00000120: e703 0a3e f550 e8bd 0ee0 a53d d1b3 b33d
00000130: 632f b1bd 248e 203e 65cf c7bd 2afb d5bd
00000140: 9709 00be 8f58 4bbd 9359 8fbd 4f05 bd3c
00000150: 6420 80bd 8243 18be 9442 fabd a525 b3bd
00000160: 5518 dd3d ef46 073e 09a6 1ebd a72b bfbd
00000170: 1028 013e abb4 6c3d 60d4 d3bc a650 103b
00000180: f453 4ebd 3b30 9d3e 07cf ab3e 9d44 3e3e
00000190: a18a 3abd 6e64 73bc fcb3 713c 1791 e23e
000001a0: d474 9cbe bd0c 073e 5ea4 953c 389d ec3c
000001b0: 6655 3fbe 1791 b6bc a8a4 5b3d d8b2 b2bc
000001c0: 2b93 f03d 3fd7 ef3c 8fd6 5bbc bd05 bc3c
000001d0: 53f3 c9bc 67bd 7b3e 57ed c73d 6822 8bbe
000001e0: 1710 183d 53e9 813d 216b 5dbd 145a aa3d
000001f0: 28da 12be 1388 7c3d 15c5 9abd e639 2ebb
00000200: 0ad8 d0bd 88e0 a03d 6ace 95bd 64dc 1abd
00000210: ab8e 3c3d fc4b d53c 53e3 dd3d a1ad 8b3e
00000220: b11d da3e 4450 423e 16c7 353d a86d 8abd
00000230: 8547 6b3c 81b9 943e c9ae 12be 98b1 cb3d
00000240: 95ef 533e 4af1 633d 4562 4a3e 9cdb 743e
00000250: a44f 9abe 909a a9bd 4695 af3c f427 313e
00000260: 33b8 16be 9f7c aebc 265e eabe e9de 873c
00000270: 7949 113e a0ed a03d c371 d23d 9ae1 5e3d
00000280: 1aa4 ee3c 5988 d53d 308c 853d 7491 f93d
00000290: 0f56 253d f06e 14be 5c69 5d3d dec4 4fbd
000002a0: ee88 49be 05e3 9a3d cdf9 1bbb c4ee 863d
000002b0: 7a4d 21be 9da4 b73d 2803 98bc f9b1 cfba
000002c0: 4284 b0bc b3ab 523e 3725 023d b1a9 cd3d
000002d0: 767a bbbc 0bf2 7e3e 1015 f5bc d1e2 23bc
000002e0: 73a7 273e a12d 553e e42b 443e 163e 3abe
000002f0: 72a6 cbbd 6cb0 fd3d bb98 163e 0403 06be
00000300: fb2a e43c 9bf2 903e 7f91 23bd 3c41 a63e
00000310: 7382 4a3b f460 d7bc 5f4d 033c e430 05bd
00000320: 8fa9 dabd fb55 713e dcbf 183e 0c24 253d
00000330: cc2d 1d3e a2ca 46bd 750c 55be 2d3e 1b3e
00000340: 8479 6fbe 2875 c5bd 5d69 dcbd 6bc8 be3d
00000350: 5441 0fbb 0dea 6a3c dc3a 5abe 5b72 c7bb
00000360: 9ba7 923d 79ca 043e 20ee 9a3d 793b e8bc
00000370: 6e31 e53d 1fef 353e 10e7 cfbd 826e 863d
00000380: d316 eebc 0817 9c3c f3ab 243e e9e0 cd3d
00000390: 93d8 4b3c 7606 ffbd b74a 223e 30a7 2f3d
000003a0: e8c4 17be 683d 67bd c72d 833e 5c14 58be
000003b0: 1757 663d a37a 96bd 6a12 79bd e36b 763e
000003c0: 24bb 0ebd 3dff e83d f1de 263e 9861 913d
000003d0: 300e 4d3c 5fbe 82bd bb38 023e 5a64 fcbd
000003e0: d651 a1bd 07b1 c93c af61 ac3c 4c96 d4bd
000003f0: e8cf 503c e711 013e 56b3 af3d 5743 943d

context_transformer_0/ffn_layer_3/intermediate_dense/einsum/Einsum;context_transformer_0/ffn_layer_3/intermediate_dense/Relu;context_transformer_0/ffn_layer_3/intermediate_dense/add f4 [32]
-0.05367442 -0.03884407 -0.22984208 -0.22815375 -0.16401264 -0.092873506 0.089312844 -0.3444998
-0.11494871 -0.09288386 -0.097116515 -0.019881852 -0.18609211 -0.038156416 -0.15503994 -0.019994827
-0.1391122 -0.20973048 -0.24589601 -0.026441118 -0.19736841 -0.14822254 -0.25937298 -0.28045642
-0.16006102 -0.0520766 -0.069929674 -0.11627312 -0.053829767 -0.1836934 -0.028438827 -0.010924273
00000000: b5d9 5bbd f61a 1fbd b95b 6bbe 23a1 69be
00000010: eef2 27be 7734 bebd a7e9 b63d 4762 b0be
00000020: 3b6a ebbd e539 bebd 06e5 c6bd 44df a2bc
00000030: ee8e 3ebe e749 1cbd cac2 1ebe 31cc a3bc
00000040: 6e73 0ebe 96c3 56be 2acc 7bbe 0b9b d8bc
00000050: f21a 4abe a6c7 17be 89cc 84be fc97 8fbe
00000060: 09e7 23be 464e 55bd 4a37 8fbd 9a20 eebd
00000070: 9a7c 5cbd 1f1a 3cbe 8bf8 e8bc b9fb 32bc
